2layer200DNNwindow_size1training_data1y4_non-chord_tone_pitch_class
_________________________________________________________________
Layer (type)                 Output Shape              Param #   
=================================================================
dense_58 (Dense)             (None, 200)               8600      
_________________________________________________________________
dropout_39 (Dropout)         (None, 200)               0         
_________________________________________________________________
dense_59 (Dense)             (None, 200)               40200     
_________________________________________________________________
dropout_40 (Dropout)         (None, 200)               0         
_________________________________________________________________
dense_60 (Dense)             (None, 4)                 804       
_________________________________________________________________
activation_20 (Activation)   (None, 4)                 0         
=================================================================
Total params: 49,604
Trainable params: 49,604
Non-trainable params: 0
_________________________________________________________________
valid accuracy: 96.006155303 % ¡À 1.63739693467 %
valid precision: 81.3817855059 % ¡À 4.94264878553 %
valid recall: 65.5255180796 % ¡À 11.5520262888 %
valid f1: 72.2405317433 % ¡À 9.3883589599 %
…
