2layer200DNNwindow_size0training_data1y4_non-chord_tone_pitch_class
_________________________________________________________________
Layer (type)                 Output Shape              Param #   
=================================================================
dense_28 (Dense)             (None, 200)               3000      
_________________________________________________________________
dropout_19 (Dropout)         (None, 200)               0         
_________________________________________________________________
dense_29 (Dense)             (None, 200)               40200     
_________________________________________________________________
dropout_20 (Dropout)         (None, 200)               0         
_________________________________________________________________
dense_30 (Dense)             (None, 4)                 804       
_________________________________________________________________
activation_10 (Activation)   (None, 4)                 0         
=================================================================
Total params: 44,004
Trainable params: 44,004
Non-trainable params: 0
_________________________________________________________________
valid accuracy: 94.5928030303 % ¡À 1.21225992045 %
valid precision: 71.8230861913 % ¡À 4.34781742993 %
valid recall: 52.3708430123 % ¡À 8.74603199446 %
valid f1: 60.3113180439 % ¡À 7.33780323628 %
…
